models/model_parking_color_cnn.pth (torch, 120197 bytes, 10 tensors)

conv_layers.0.weight f4 [16, 3, 5, 5]
00000000: 1dd0 8b3d 4ed7 2dbd 7d29 eebd 6936 973d
00000010: eb00 67bb d982 19bd 2dcf d0bd 8a4a c2bd
00000020: f267 633c f1db c0bd 7240 503c d5b7 c23d
00000030: b660 e1bc 5519 d83c e48d c5bd 52d5 b1bd
00000040: 011b 22bd 0b15 28bd 5789 e6bc 7ec5 dbbc
00000050: fa6a 3bbc b9d0 c03d a55c c53b 6c68 f2bc
00000060: 8fa3 22bc 1a15 873d 2b8a 3f3d 354c d4bd
00000070: fd78 893d 849b d7bb 615b 6abd f1ac d63c
00000080: 0ad7 cbbd b2fb 8ebd 6412 b4bd 43da eb3d
00000090: 9ee9 0d3d 6d2e dd3d e919 013e 05d7 debd
000000a0: 914d 8dbd a464 e6bd a170 1d3d e33e 453d
000000b0: e528 9b3d 0e08 b03d 0862 813d bcf1 54bc
000000c0: 92ec b73d a533 abbd 9272 19bd 77c5 8c3d
000000d0: dafb d33d 327c b13d 4cc4 85bc 8630 f73d
000000e0: 9feb babd 59ad 6c3d ae11 13bd 66ee e33d
000000f0: 9a71 853d 46dc d2bc 7168 a83d 0600 ed3d
00000100: 38b3 7bbd ace6 d93c b054 ab3c 4862 f53b
00000110: 449a 593d e098 013e 12e7 cf3c 0297 b63d
00000120: 2e15 a73d 260b 403d d31d c23d 0417 033e
00000130: 6f1e 433d c065 dc3d bfbf 6c3d e42c cf3d
00000140: d8bb 793d b0c6 b6ba a631 ef3d 600a ce3d
00000150: e584 843c 837f 1cbd ce4f f53c 49f5 e8bb
00000160: 9b43 c63d 5b0b 613c d5ba 053e 799a 9dbd
00000170: e1fe ac3d b8a3 a6bd e5e6 2b3c 3c1c d53d
00000180: 2675 293d 1aaf c4bd 54a5 f43d 8825 ed3d
00000190: daa5 6e3d fb77 35bd 2b47 873d f717 833b
000001a0: 74c0 c4bd e38d 313d d25a d83d d0d1 87bd
000001b0: 5660 d7bd 367f a23d ae0d 3dbd 3c1f 31bd
000001c0: ed81 cd3d c810 af3d 3c25 28bd e6f5 d8bd
000001d0: cd39 1c3d 4031 713d db53 b4bd dbab 80bd
000001e0: 883e edbd 59fd b5bd 4a29 e43c 1e09 e6bd
000001f0: fa40 e4bd 7f51 ecbd 3150 583d 4249 2a3d
00000200: 2c02 a43d 84c2 dcbd fe5a 5bbd 439c babd
00000210: 1418 9f3d 598c 973c e257 1c3d a3e6 00bc
00000220: f416 803d 2575 e6bd ea2f ccbd 8700 92bd
00000230: bef0 16bd bbd2 543a 7e4c 16bd b9b0 e53c
00000240: 6f4d aebd 0053 cfbd dd87 c23b 2758 acbc
00000250: 3e39 96bd 23cc 30bc 114b b33c fea0 8d3d
00000260: 3432 d2b8 5cbc 43bd 5744 d63d e877 49bd
00000270: 7879 c5bc a18f 0a3d c97c 79bc 476c a13c
00000280: bb2e a93b 495b 103e dbd2 0b3e 2695 0fbd
00000290: 6091 dc3d 978e c0bd 9954 193d 8698 faba
000002a0: 4360 9c3d 54d4 ca3d c977 2a3d d24a df3b
000002b0: e430 3e3d d73f 093e ca05 ab3d 5bb0 1f3d
000002c0: 9aaf 3939 c5e7 863d adcb 74bc 55a9 033d
000002d0: 7265 b8bd e85f 38bd 3376 053e 486f b53d
000002e0: a2f1 8e3d f2ed 933b dcd0 8a3d aff5 db3d
000002f0: 066f 013e a6db 4d3c 230b c83b 54ef 5d3d
00000300: 4818 de3c bd25 fa3d e293 8e3d 0b4c 1ebd
00000310: 53c6 b93d e9db b23d 75c3 ddbb 80bc 023e
00000320: 9950 82bd c729 b93d fd28 74bd c4b8 db3c
00000330: 4b64 a2bd f0ae 873d e0e8 03bd 7f27 72bd
00000340: b281 80bd a89a e7bc d884 dbbd ba34 17bd
00000350: 4417 60bd 120f 093d fc17 253c 4a85 9abd
00000360: 567a 913d 0bc4 363d ac1c 3a3d df16 c6bb
00000370: 85a7 87bc ea9c c63c 6b88 e13b 6fe1 76bd
00000380: 768e 963d 7b46 c5bc 89ef a83d 21e9 793d
00000390: 5a2c 8d3d 6d45 8d3d 63f5 bb3d c043 80bd
000003a0: 294a ca3d d03c d43d eda4 ba3d 8363 99bd
000003b0: 5e16 e93d 0235 c63c 23ef 9f3d a823 823d
000003c0: 4dd7 f4bc fa33 ee3d 392d 4f3d 66ce 30bd
000003d0: 585b 8a3d 3872 b8bd 79be 77bd 9076 bf3d
000003e0: e1b2 80bd 137f b23c 292a e63d 92b5 be3b
000003f0: 0c1b 14bd a56e a03d 8be1 b43c 4d6b 68bd
0.06826804 -0.04244166 -0.11629007 0.07383425 -0.003524835 -0.0374783 -0.10195766 -0.094868734
0.013879763 -0.094169505 0.012710677 0.095077194 -0.027511936 0.026379267 -0.09646204 -0.08683266
-0.039576534 -0.041035693 -0.02814166 -0.02682757 -0.011439079 0.09414811 0.006023007 -0.029590808
-0.009926691 0.06595822 0.046762627 -0.10366098 0.0671253 -0.006579818 -0.057216052 0.026205512
-0.09953125 -0.06981601 -0.0879257 0.115162395 0.034646623 0.10799871 0.1260754 -0.108808555
-0.0689956 -0.112496644 0.03843749 0.048155677 0.075761594 0.08595286 0.06317526 -0.012997087
0.08980669 -0.0835946 -0.03746278 0.06873601 0.10350771 0.086662665 -0.016328953 0.12069802
-0.091269724 0.057782505 -0.035905533 0.11129455 0.065158084 -0.0257398 0.082230456 0.1157227
-0.061450213 0.02659925 0.020914406 0.0074885227 0.053125635 0.12655973 0.025378738 0.08915521
0.081583366 0.046885632 0.09478345 0.12801749 0.047636446 0.10761595 0.05780005 0.10115984
0.060970157 -0.0013944712 0.116793916 0.100605726 0.01617665 -0.038207542 0.02994528 -0.0071093184
0.096808635 0.0137356175 0.13059552 -0.07695479 0.08447052 -0.081366956 0.010492061 0.10405776
0.041371487 -0.096037105 0.11945596 0.11579424 0.058263637 -0.044303875 0.06605371 0.0040006596
-0.0960702 0.043348204 0.105641976 -0.066318154 -0.105164215 0.0793442 -0.046155624 -0.043242678
0.10034547 0.08548123 -0.041051134 -0.105937764 0.03814106 0.05888486 -0.08805057 -0.06282779
-0.115841925 -0.08886213 0.02785172 -0.11232208 -0.11145206 -0.11538982 0.05281085 0.04157377
0.08008227 -0.107792884 -0.053553574 -0.09111836 0.077682644 0.01849954 0.03816975 -0.007867488
0.06254378 -0.11252812 -0.099700764 -0.07129007 -0.036850683 0.00081185595 -0.036694042 0.02803837
-0.08510863 -0.10123253 0.0059366063 -0.021038128 -0.07335137 -0.0107908575 0.02188638 0.069154724
-0.000100229314 -0.047787055 0.104622535 -0.049186617 -0.024105772 0.03382838 -0.015227505 0.019704951
0.0051630414 0.14097323 0.13654654 -0.03505435 0.107699156 -0.09402197 0.037434194 -0.0019118942
0.07635548 0.099037796 0.041618142 0.006814339 0.046433344 0.13403259 0.083507136 0.038986545
0.00017708392 0.06587175 -0.014941138 0.03214391 -0.09003724 -0.04501334 0.1303337 0.08859116
0.069796816 0.0045144493 0.06778118 0.1074022 0.12640008 0.012564575 0.006104843 0.05418332
0.027111188 0.12214229 0.069618 -0.03864674 0.090710305 0.08733351 -0.006767685 0.1276722
-0.06363029 0.090411715 -0.059609402 0.026821502 -0.079292856 0.066251636 -0.03220451 -0.059119698
-0.062747374 -0.028271988 -0.10718697 -0.03691552 -0.054709688 0.033461638 0.010076519 -0.07544954
0.07103412 0.044620555 0.0454375 -0.006045207 -0.016559372 0.024244744 0.0068827174 -0.060273584
0.07351391 -0.02408146 0.08248813 0.061013345 0.06893225 0.068980075 0.09177663 -0.06262922
0.09877426 0.103631616 0.09113488 -0.074896835 0.11381219 0.024195198 0.078092836 0.06354457
-0.02988782 0.116310075 0.050580237 -0.043165587 0.06755704 -0.090061605 -0.060484383 0.09348786
-0.062841184 0.02178911 0.1123851 0.0058199847 -0.036158606 0.07833604 0.022080204 -0.056742955

conv_layers.0.bias f4 [16]
00000000: d4c0 e4bc b10f c73b 6969 dcbd 56e0 f3bd
00000010: b6e1 133c 105d 05bd 7ffc 13b9 e5fc f03d
00000020: e8e4 52bd 24db c4bd 7569 803c 5f34 babd
00000030: 5faf bb3d e832 c9bc 87af 303d de07 183d
-0.027923979 0.0060748686 -0.10762293 -0.11908023 0.009025982 -0.032559454 -0.00014113075 0.11766986
-0.051487833 -0.0961211 0.015675286 -0.0909202 0.09164309 -0.024560407 0.043136146 0.037116878

conv_layers.3.weight f4 [32, 16, 3, 3]
00000000: da46 fd3d cbb7 cd3d 334d 02bd 693f e53d
00000010: 2245 a03d 20a5 023e 97b1 cbbc 2231 d53d
00000020: b719 aebc 70f0 143b d7aa 6d3d 1279 6dbd
00000030: 0c95 303d d9c4 60bd 6089 e53c f832 2d3d
00000040: 400f 0c3c c7bb 87bd 9144 c6bb 3a4e 923c
00000050: 72bc 9f3c ff24 b83d f178 8e3d d4a7 b73d
00000060: 66f4 203d 02cc 8b3d f7f5 863d 7132 2c3c
00000070: b910 bd3d c52b e43c 3d0a b53d 8f2e a93c
00000080: fda0 23bd f87b b73d 8399 05bc 7a5a e83c
00000090: 1f90 bd3d 5939 91bc 0122 33bc c14c 743c
000000a0: 66e6 373d 51a7 cc3d 2871 c6bc c7d7 c73d
000000b0: 69b3 423d 2646 c4bc 69e5 80bd 4436 593c
000000c0: d91e 88bb 249a 8c3d 7688 aebc e8a4 9e3c
000000d0: 01df 7c3a ff26 6d3d ca2b 8b3d cb21 b1bd
000000e0: df30 8c3d de7c 593d 575f 1f3d 4be4 afbd
000000f0: 24ea fd3c 01e2 9e3d befd b338 889d 273d
00000100: aeb0 9abc cbcd efbd ec13 283d 8eca 0f3d
00000110: f09f 803b b1b5 f6bc 6dc9 4d3d a241 a2bc
00000120: fbd3 c2bd 967c 98bc 5236 f3bd 28a9 c4bd
00000130: 6d38 cdbd 978a abbd 4def 3abc 7b27 03be
00000140: f363 d13c ea89 0b3c bd2e b13c a96b 82bd
00000150: 9b1f c2bd 9720 9ebd 741e 343d 915d 3ebd
00000160: 7e03 7bbb 231b 173d 9c5b d43d 5ac6 b03d
00000170: 2ac2 dd3d 1f2a 7c3d 62d2 b63d 94f4 963d
00000180: c198 893c 5d64 be3d 3d4a ed3d 86ac bf3d
00000190: b9a9 783d 8070 073d e0c4 de3c a7d3 4a3d
000001a0: 05bf 98bb 8968 0f3d f924 03bd 2a9f f63b
000001b0: 788c adbd e6ef bbbb 3ff5 803d 001f 003d
000001c0: cba9 373d e25a 283d a156 a23d 409b 78bd
000001d0: 9293 19bd 39e8 cd3c 3d50 b3bc 4dfa f7bc
000001e0: 0aa2 fa3c 0f1c 973d cc13 b43d 01be f6bc
000001f0: 321f 953d 1c21 00bc cd77 aebd 8f62 2dbd
00000200: 74e9 243d d54a b3bd e139 64bb 1628 90bd
00000210: 6f0e 863b 8fc8 94bc 06a6 9a3d 2c38 d0b9
00000220: eb46 a93d 6db6 68bd f1bc ce3c 755c 7dbc
00000230: 8563 513d 23d8 253d 35d6 8b3d 46f5 ca3c
00000240: fab7 873c 54fb 303d 9adc c7bb 1c04 2a3c
00000250: 28e9 ccbc f159 5dbd 0b75 783c f39b 8abd
00000260: 0190 2b3d d5c6 013e b734 c93d 3081 eebb
00000270: bfc1 1ebc 94c7 a63d 8255 e53d d741 57bc
00000280: de6b 253b c7e0 dd3b b635 a03d 0044 eaba
00000290: 3ea3 4bbd d7a5 8abd e8b1 b1bd ecc5 bebd
000002a0: 116d b03b 0f00 d9bc 30f5 36bc 327a 5e3d
000002b0: 2846 07bd 7600 8d3b 1f7b 003d a273 1e3d
000002c0: 95f3 8fbd 3b54 56bc 75e7 213d c3e4 34bd
000002d0: 4b8d 8a3c 138f c0bd 7204 5e3d 601d a53b
000002e0: 1b8b 0fbd 14b2 9ebd 7c11 5abd 0739 4c3d
000002f0: 1117 a1bd 5cef fb3c a842 713c 3161 7c3c
00000300: 8848 2b3a c5cf c7bc 8b73 aa3d 1164 4c3d
00000310: 4248 4b3d 94d4 08bb 1e4a 1d3d 784c eb3d
00000320: 5fdd d43d 819e d53d 1552 a53d ed75 5d3c
00000330: 7cd3 fb3c 03d1 eabc be2e 86bc 4115 763d
00000340: 41be 093e 4585 063e 8f70 153d b1ce b43d
00000350: 562d fe3c 02c8 3a3c 5c76 4aba d500 db3d
00000360: a719 a93d 3428 a73d 3fb9 f93d 1f5a 7a3d
00000370: 636b 61bc 61de 2c3d 293c 15bd 072b 043d
00000380: 2202 443d d976 723d 61fd a63c ec23 0b3d
00000390: 1fb9 bf3d ceb4 a33d 009f c2bc afd0 143d
000003a0: f747 fa3d fe14 663d 4fa4 c0bc 6bc9 86bd
000003b0: e8f8 97bd 6520 523d 0d17 cfbc 8e36 6dbc
000003c0: 7121 53bd 53e7 213d a4a3 eabc d955 0dbd
000003d0: 983a 7e3c b80e 553b 7cbd 923d 0f9b d6ba
000003e0: 43f1 053d 4080 813d e887 d83d 34e3 6a3c
000003f0: 47e1 a53d da68 a03c 84c9 b4bb a46f 5a3b
0.123670295 0.10044821 -0.031811904 0.11193735 0.07825686 0.12758303 -0.024864955 0.10409762
-0.021252496 0.002272632 0.058024254 -0.05797679 0.043110892 -0.05487523 0.028019607 0.042284936
0.008548558 -0.066276126 -0.006050654 0.017859567 0.019499037 0.089914314 0.069566615 0.089675575
0.039295577 0.06826021 0.06589883 0.010510073 0.09231705 0.027852902 0.088398434 0.020652084
-0.039948452 0.08959192 -0.008154276 0.028363455 0.092560045 -0.01772754 -0.0109334 0.014910878
0.04489746 0.099928506 -0.024223879 0.09757953 0.04753438 -0.02395923 -0.062937565 0.013257567
-0.004154068 0.068653375 -0.021305304 0.019365743 0.0009646267 0.057898518 0.067954615 -0.086490236
0.06845259 0.0530976 0.038909283 -0.08588465 0.030995436 0.077579506 8.582648e-05 0.040921718
-0.018883076 -0.11709174 0.041034624 0.03510528 0.003925316 -0.030115934 0.050240923 -0.019806687
-0.09513088 -0.018614095 -0.11875595 -0.096025765 -0.10020528 -0.08376043 -0.011409593 -0.1280803
0.025560355 0.008516768 0.021628732 -0.06368191 -0.094786845 -0.0772106 0.043974355 -0.04647595
-0.0038301642 0.036891114 0.103690356 0.086315826 0.108280495 0.061563607 0.08926846 0.07370868
0.016796472 0.092964865 0.115864255 0.09359078 0.060708735 0.033066273 0.027193487 0.049518254
-0.004661443 0.035011802 -0.03201768 0.007526298 -0.08474058 -0.005735385 0.06296777 0.031279564
0.04483966 0.041102298 0.079266794 -0.060694933 -0.03749425 0.025135146 -0.021888847 -0.03027072
0.030594844 0.073783986 0.087928385 -0.030119898 0.07281341 -0.007820394 -0.08518944 -0.04233032
0.0402617 -0.087545075 -0.0034824538 -0.07038896 0.004091076 -0.01816204 0.07551198 -0.00039714703
0.0826548 -0.0568146 0.025236579 -0.015463938 0.0511203 0.040489327 0.06827966 0.024775159
0.016567219 0.043208435 -0.006099296 0.010376956 -0.025013521 -0.054040853 0.015164624 -0.06768026
0.04188538 0.12673505 0.09824508 -0.007278584 -0.009689747 0.08143535 0.1119795 -0.013138256
0.0025241296 0.0067711803 0.078227445 -0.0017873049 -0.049716227 -0.06769913 -0.08676511 -0.09315094
0.0053840955 -0.026489286 -0.011166856 0.054315753 -0.03302589 0.0043030335 0.031367417 0.038684495
-0.070288815 -0.013081606 0.039527375 -0.044163477 0.016913077 -0.09402289 0.054203458 0.005038902
-0.03504477 -0.077488095 -0.05323933 0.049859073 -0.07865728 0.030753784 0.014725365 0.015404032
0.00065339403 -0.024391064 0.08322819 0.04990012 0.049629457 -0.002087866 0.03840076 0.11489195
0.10393786 0.10430623 0.080722965 0.013516885 0.030740492 -0.028664118 -0.01637971 0.060078863
0.13451482 0.13136776 0.036484297 0.08828486 0.031027477 0.011400225 -0.00077233254 0.10693518
0.08256846 0.08161965 0.12193536 0.061121102 -0.013758513 0.042204265 -0.036434326 0.032267597
0.047853597 0.059195373 0.020384492 0.033969805 0.09361481 0.0799347 -0.023757458 0.03633183
0.122207575 0.056172363 -0.023515848 -0.06581386 -0.07420522 0.051300425 -0.025279546 -0.014478339
-0.051545564 0.03952725 -0.028642483 -0.0345057 0.0155168995 0.0032509994 0.071650475 -0.0016373115
0.03270079 0.0632329 0.10572797 0.014336396 0.08099609 0.019581247 -0.0055171866 0.0033330703

conv_layers.3.bias f4 [32]
00000000: cf0f 803d 4138 29bb efb7 f03b 906e b0bd
00000010: 1872 c2bd 5230 83bb 4b49 ccbd baed b1bd
00000020: dbb6 abbd 4e97 94bd ff2b 08bd 3250 f23c
00000030: 239a d83b bbe8 093d 4867 e63c f32a cf3c
00000040: 1953 993d e2df 213e 6ef1 cb3d 9dc3 013d
00000050: 5269 a03d a65d 77bd 65aa 9a3d f455 0a3b
00000060: 662e 0d3c 09f6 a5bd b111 4fbd d20f e53c
00000070: 525f bdbd 58e5 80bc 1f9e 47bd 97da 913d
0.06253015 -0.0025820883 0.0073461453 -0.08614838 -0.09494418 -0.004003563 -0.09974917 -0.08687921
-0.08384486 -0.072554216 -0.033245083 0.029579256 0.0066101714 0.033669215 0.02812542 0.025289034
0.07486553 0.15808061 0.099581584 0.031680692 0.07832588 -0.060392044 0.075520314 0.002110836
0.008617019 -0.08103568 -0.05055398 0.027961645 -0.092466965 -0.01573436 -0.04873478 0.07121771

conv_layers.6.weight f4 [64, 32, 3, 3]
00000000: 9975 973d 83f8 18bd 03a1 863d a481 e63a
00000010: 14d6 703d 9897 cc3c 7061 a13d 53a1 803b
00000020: 80b5 bc3c 56b3 39bd 7da1 873c 39ec a8bc
00000030: b1b0 d53b 09ad aa3a d6a2 d5bc 6638 09bd
00000040: 04b2 863d f594 093d dc53 5cbd a7a0 d5bc
00000050: 77d5 853d 1e4e 0f3c b614 04bd 7b37 fd3c
00000060: d6e6 223d 90be 263d 8409 8d3d e627 7c3c
00000070: e930 823d 9b0e 1cbc 760a 893d 7f0d 08bd
00000080: 401e 8cbc 47b0 983c 1ba1 a03d ed5d 943d
00000090: c165 4c3d cd62 46bd 5aa0 3dbd 115e e239
000000a0: c7b7 4cbb 9763 7a3d 5345 143d 0227 413d
000000b0: e409 883d 9de9 86bd 44f3 00bd 88c9 3abc
000000c0: e472 dc3c dbac 563b a09e 7b3c c259 54bd
000000d0: dc6b c2bc c068 e7bb 0a49 4a3c 2048 43bc
000000e0: 4694 e1bb 651f 8ebc 241e 69bc cb40 f0bc
000000f0: e545 ce3c 96e0 793d 6f8c 363d d6b2 1a3d
00000100: 9579 64bc 8366 81bd e0de 293c 55c1 dc3b
00000110: 9b8f d93c fa11 fdbc 7cb5 133b ed96 01bd
00000120: fac4 863c 2a4a 243d c5dc 16bd 9a69 f43b
00000130: f949 183b 59ad eabc 8b4e 9e3c 5872 30bd
00000140: 8e4b 63bd 736e 4abc e818 c6bb a3fd 59bd
00000150: e9ec a3bc 3aa0 7fbc e185 4b3d d7cf b5ba
00000160: 81fb 87bb 6a77 163d 6da5 d03c 6d19 09bd
00000170: cc68 3c3d 0ecd bcbb c463 513d 5b55 9c3c
00000180: c940 df3c 517f 2a3d 759d 03bc 254a b83c
00000190: bef4 853d 7386 03bd 0629 a1bb 7607 343c
000001a0: d3ef 073d a5c2 14bc df48 4aba e207 253d
000001b0: 0f00 7dbd 391c 68bc 9ab3 393d adef 8a3c
000001c0: ab3c 4f3d 089f c13c 60fc e9bc 2ae9 5bbd
000001d0: 8cdb 503d e73d 19bd 9bd5 533d 7621 02bd
000001e0: 29c4 273d df2a 383c 1d4b 20bc a034 07bc
000001f0: c962 b53d 73ee 833d 33c4 323d 6449 d1bb
00000200: 3356 f73b 8f4a 1b3d 7eb3 443d d06e 7e3d
00000210: d3e0 873c 7fd8 a4ba dee4 503d e52a 61bc
00000220: 13f0 333d af98 223d 8853 293d 8fa7 3a3d
00000230: 2725 5ebd 57df 1bbd a828 02bc d55d 0dbd
00000240: 8c9e ee3c 5acc d93b a2bb 2a3d 1c7c 383d
00000250: 29cd f3bb 22ee 423d da19 0fbd ce46 0d3d
00000260: c4dc 9dbb 58bc 4f3d e34e bc3c f5e7 883d
00000270: d72a 4a3d 14fb 733d 98e0 d23c 5ea8 153d
00000280: 54b8 9f3d 24b6 c83c 4b3b 7d3b 0a23 a43d
00000290: 2f53 f83c d173 e13c 7ae3 403d b885 5c3d
000002a0: f8d6 8dbb ad28 ca3d 49c6 483d 53ed 653c
000002b0: 591b 57bd 57d9 4f3a 55f5 8cbd ccbe b33b
000002c0: ac54 f03c 500c 4fbd 1a69 2b3c 5a32 a2bc
000002d0: 0117 e7bc 84a1 4b3b ff86 4cbd 8843 ddbb
000002e0: 681c 6f3c 34c1 173d 5dff 62bd 28e7 7dbd
000002f0: dbc2 5e3b 5c5a ce3c 8735 f93c a9aa 27bd
00000300: 0d2d 983c 1016 25bd 80c3 27bd e4fd 06bd
00000310: e3ce 533c d4f9 493d 66bb 813d 9b7f d53c
00000320: 7c17 063d f380 413d 9491 633d 6df7 bb3d
00000330: c483 d03d 694f 0cbc d9db c93d a8ac abbd
00000340: b463 c73c f578 afbd 6eed 00bd 9bdf a1bd
00000350: 1cd9 bebd 35d3 9e3b 6dac a73b e992 c5bd
00000360: 0ded f9bb 0ea1 63bc 184b d13d 1933 52bc
00000370: 3c1c 5a3c 8b52 913d 9f65 953c 3987 12bc
00000380: e307 473d 6f64 51bc 9578 4dbd c827 ce3c
00000390: e940 393d 0fe3 513d 807f a5bc 7fb5 003c
000003a0: 5b36 f0bb ef8c 3d3c 764d 5f3b c4dc 3ebd
000003b0: a591 c8bb 4ea9 83bc 50a9 4e3d 65d1 c13b
000003c0: 85df 9a3c 208d 603d 4fb2 703d 86d9 ee3c
000003d0: 74ee d53c be9d 5a3c abbd 163c d8a1 bbbb
000003e0: 8f72 703d 9b70 ffbc 8b31 dd3c 2c3e 073d
000003f0: bb07 08bd b866 813d 0abd e4bc 5e43 1d3d
0.07395477 -0.037346374 0.06573679 0.0017586243 0.05879791 0.02497463 0.07879913 0.0039254813
0.023035765 -0.045337044 0.016556496 -0.020620452 0.0065213074 0.0013021539 -0.026078623 -0.03350105
0.065769225 0.033589322 -0.053790912 -0.026077582 0.06534856 0.008746652 -0.032246314 0.030910244
0.039770924 0.04070908 0.068865806 0.015390372 0.06356985 -0.009524967 0.066914484 -0.033215996
-0.017104268 0.018638743 0.078432284 0.072444774 0.049901728 -0.048434068 -0.0462955 0.00043176164
-0.003123747 0.061130133 0.036198925 0.04715634 0.066425115 -0.06587527 -0.031481996 -0.011400588
0.026910253 0.0032756838 0.015357643 -0.051843412 -0.023733072 -0.0070620477 0.012346515 -0.011919051
-0.0068841306 -0.017348954 -0.0142283775 -0.02932777 0.025179813 0.061005197 0.04456752 0.037768207
-0.013945003 -0.06318381 0.010368079 0.006736914 0.026557734 -0.030892361 0.0022538593 -0.031638075
0.016451348 0.04010979 -0.036831636 0.0074588777 0.002323745 -0.028647112 0.019324562 -0.043077797
-0.055491976 -0.012355435 -0.0060454495 -0.053220402 -0.020010429 -0.015602166 0.049688224 -0.0013871145
-0.0041498546 0.036734976 0.025469506 -0.033471514 0.04599838 -0.005761749 0.051120535 0.01908367
0.027252572 0.041625325 -0.008033146 0.022496292 0.065408215 -0.032110643 -0.0049182205 0.010988107
0.0331877 -0.00907961 -0.0007716547 0.04029072 -0.061767634 -0.014166885 0.045337297 0.01695999
0.050594967 0.023635402 -0.028562725 -0.05368916 0.050990626 -0.03741255 0.051717382 -0.031770192
0.040958557 0.01124069 -0.009783533 -0.008252293 0.088567324 0.06441965 0.04364414 -0.0063869227
0.0075481175 0.0379129 0.04802274 0.062117398 0.016586697 -0.0012576728 0.050999515 -0.013743137
0.043930124 0.03969639 0.041339427 0.045569953 -0.05423465 -0.03805479 -0.0079442635 -0.034513313
0.029128335 0.006646675 0.041682847 0.045040235 -0.0074402285 0.047590382 -0.034936763 0.034491353
-0.004817577 0.050716728 0.022986835 0.06684867 0.04935726 0.05956562 0.02574186 0.03653752
0.0779883 0.024500914 0.0038640078 0.08014496 0.030313103 0.027521046 0.04709194 0.05383846
-0.004328605 0.098710395 0.049017224 0.014033633 -0.052516315 0.00079288095 -0.06882731 0.0054853912
0.02933725 -0.05054885 0.01046207 -0.0197994 -0.028209211 0.0031071613 -0.04993343 -0.006752435
0.014594175 0.037049487 -0.055419315 -0.061988026 0.0033990655 0.025189571 0.030421032 -0.04093424
0.01857617 -0.040304244 -0.040957928 -0.032956973 0.012927744 0.04931052 0.063345715 0.026061824
0.03273724 0.047242116 0.055558756 0.09178052 0.10181382 -0.008563855 0.09856386 -0.08382541
0.024339534 -0.085679926 -0.03147643 -0.079039775 -0.09318754 0.004846955 0.0051169903 -0.096471615
-0.0076271356 -0.013893379 0.10219401 -0.012829565 0.013312396 0.07095822 0.018236933 -0.008943372
0.048591506 -0.012780293 -0.050163824 0.025165454 0.04522792 0.05124193 -0.020202398 0.007855772
-0.0073306984 0.011569246 0.003407327 -0.046597257 -0.006120878 -0.016071942 0.050454438 0.0059148544
0.01890541 0.054822087 0.0587638 0.029156458 0.02611468 0.013343273 0.009200494 -0.0057260804
0.058703 -0.031181624 0.027001163 0.033018276 -0.033210497 0.0631842 -0.027922172 0.038394324

conv_layers.6.bias f4 [64]
00000000: 5d37 e73d ffff 823d 80ee 8abd 9487 94bc
00000010: 9648 dabc a07e d13b 9c49 bcbc 08ef d43c
00000020: 54d5 ac3c a844 30bd d423 6fba 6404 8dbd
00000030: e5eb c13c 44e6 d63c b535 2fbd 2fc9 e2bc
00000040: 5a39 63bd 83ac a83c 0098 42bd 4b8e a7bc
00000050: 5554 3f3b e18b ec3b 7cc9 b2bc 0ead 2fbc
00000060: 40f9 983c 3a25 f43c 86a1 853d 4fc6 b9bc
00000070: 32aa f6bc 56d4 9a3d e1db 07bd f315 74bc
00000080: 9672 7fbc b831 a8bd 4b81 7f3c d814 e53c
00000090: d39b c63c 3e9c a5bd d379 f33c be78 c6bc
000000a0: f9f0 b1bb 360c 30bd 2432 53bd e96a 33bd
000000b0: 5853 a43c 3cd6 71bd 1379 9fbc 0e3f 16bd
000000c0: 794c 11bd a599 143e 1a6d 2cbb 5efe a7bc
000000d0: cd50 01bd dae5 713d ae48 8bbd 51b4 b7bc
000000e0: a4d4 88bd f81e 833d b090 a13b 1292 a0bc
000000f0: ec26 663d e7ec 17bc 78d8 7b3d bf04 7cbd
0.112898566 0.06396484 -0.067837715 -0.018131055 -0.02664594 0.0063932687 -0.022984318 0.025992885
0.021097817 -0.043034226 -0.0009122465 -0.06885603 0.023672054 0.026232846 -0.04277583 -0.027683822
-0.055474617 0.020590072 -0.04750824 -0.020453593 0.0029194553 0.0072188233 -0.02182459 -0.010722412
0.01867354 0.029802907 0.06524949 -0.022677569 -0.030110452 0.07560031 -0.033168677 -0.014897811
-0.015591284 -0.08212608 0.015594791 0.02796404 0.024244225 -0.080864415 0.029721176 -0.024227496
-0.0054303375 -0.042980395 -0.05156149 -0.04380313 0.020059273 -0.0590422 -0.019466912 -0.036681227
-0.03547332 0.14511736 -0.0026310147 -0.020507034 -0.0315712 0.059057094 -0.06800972 -0.022424849
-0.06681183 0.06402391 0.004930578 -0.019600902 0.056189463 -0.0092727905 0.061485738 -0.061527964

classifier.1.weight f4 [64, 64]
00000000: 304e ffbd 251f f6bd 47e5 f6bd e4e8 a0bd
00000010: 2651 873d a69f 203d 71fc 343d 0aa9 fd3d
00000020: 6421 db3c ce25 3a3d bcc9 643b c63d 9e3c
00000030: ed5e 19bd ca7e 003c a6a4 fe3d 830c a13b
00000040: f310 9ebd dfb7 5c3d 9c3e bdbd a9bd cebd
00000050: 4df9 a23d 3e08 f0bd 4652 66bd 3d87 bfbd
00000060: 5a47 fcbc 21b0 953d 8d21 b33d 1b6d 1fbd
00000070: 5fe3 23be 4474 843c c638 713d 6ce7 5c3d
00000080: e926 4fbd 8ba8 e73d 6082 ed3d 9164 b9bd
00000090: 565e 89bc 690d ef3d 09cb 033e d831 cbbc
000000a0: b849 a93d 56a7 85bc f6cf a93a b1b2 ba3d
000000b0: 3bf2 063d 6ec9 7e3c 3e79 f83d b4e7 213d
000000c0: 36a5 783d 766d ccb9 0369 0c3e 3716 bdbc
000000d0: 3298 c53d 2980 32bc 071a ea3d 329c aa3d
000000e0: 3479 183c 5e92 5c39 f790 923d 55c3 a53d
000000f0: 7370 fbbd 76db a23d a09d c5bd e029 1c3d
00000100: 26a0 813d c380 e1bc d878 c13d b994 e4bd
00000110: 8134 00be 7bfc b1bd 49d1 d3bd a444 51bc
00000120: 77f1 ac3d 3ee8 ab3c 34da 77bd 608d ffbd
00000130: f9e0 2c3d ff77 10bd 05d5 163d beaf 58bc
00000140: 83e4 e83d 2ac8 543c d2d6 61bd 96af 313d
00000150: 3b04 1c3d d7d1 b6bd 0607 983d 79ff 3abd
00000160: 7ce8 05bd e5f8 b93d c3ca 7abd 1f80 e5bd
00000170: ace7 753d dac2 3a3c 5b10 eabd 7efe bc3d
00000180: b4a9 03be aa7f 423d d4bf 853d 7500 a0bc
00000190: 6663 91bd 3210 56bd 305c 85bc 817a 9dbc
000001a0: 2501 5c3c a70b 583d e373 8cbd a9ad a1bd
000001b0: caff a7bc 0330 f8bd db69 ee3b 9570 ccbd
000001c0: 87cb febd c19c 80bd ca19 edbd f788 af3d
000001d0: 179f a5bd c809 fabc c487 9d3d 1781 61bd
000001e0: 915d 1dbd 14f4 aabd a99f e1bd 9bb4 7dbd
000001f0: e840 a7bd 9052 e43d f722 03be 311c 983d
00000200: 0ad6 e93d 2a12 37bd ae68 df3d fedd c03d
00000210: 88af ecbd ef9e a5bd 9414 aa3d c58e 653d
00000220: dbff 22bd a51a ab3d 3e1f 893d abc7 c7bd
00000230: 9906 06be 5ef6 9e3d 43ed ea3d 4306 8bbd
00000240: 731e a4bc 318f bbbd 1e1c 8e3d 3b75 263c
00000250: 5df3 d83d e796 e7bd 5b8b de3d 8ddc 05bd
00000260: 140c 963c 9a7a 0fbe b692 c2bd cfa6 043d
00000270: c83e 26be 55e1 04be 0f38 00bd e1ec a2bc
00000280: ae86 ca3d 997d 303d 1eb5 bc3d 14cf a93d
00000290: 229c bb3d 3593 a73d 0628 d4bd 9bcf 5c3d
000002a0: 14ba 2abd 90ba c7bd 6892 5bbd 2ac8 863d
000002b0: f4d3 a23d 9cb6 c7bd ce30 3c3d b8f7 8bbd
000002c0: 75c9 053e f99e 06be a522 a63d 643f fbbb
000002d0: cd8a 053e 5906 cbbd 247f 7b3d 57b9 babd
000002e0: d689 f43b 32b6 913d 6223 4f3d 7e30 47bd
000002f0: bf32 b13c 56b6 8cbd e9a1 39bc 274e 73bd
00000300: 2858 cdbc 9638 9dbd b212 a8bd 48b8 bdbd
00000310: 601d 843d 6c15 d6bd 1a4f d43d b075 a63c
00000320: 9450 553d 02ab b8bd 4091 acbc f8c8 193d
00000330: 1c99 583d e268 f53d b0b3 a4bd 942a 8abd
00000340: 0004 4d3a 7879 47bd 982b 2bbd 2c73 063d
00000350: e8d4 9abd 3024 a93d 48f0 a63d 9810 86bc
00000360: b097 cbbc 6690 cdbd 4ef1 e93d d0b8 5f3c
00000370: 2082 d4bc 9622 b7bd 74dc 123d 440a 21bd
00000380: 767b c53d 0432 c83d c04e 633c 083e d33c
00000390: 269d e6bd 10cc 163d b60c 843d e0e9 b5bd
000003a0: 407e 12bd d6ec c4bd a873 e03c 503a d8bd
000003b0: e49a 4bbd 3068 583c ba3e a9bd 802a fb3a
000003c0: 505b 26bc d0ef 793c b461 a0bd 224d e6bd
000003d0: 24a3 b63d a6a5 96bd f4e4 253d a4b2 d93d
000003e0: 6692 9c3d e0ac d6bd e8d8 dabc 98fb c7bd
000003f0: a051 d6bd 9809 e03c 1850 983c 16fa ea3d
-0.12466085 -0.12017659 -0.1205545 -0.0785692 0.06607275 0.039214753 0.04418606 0.12385757
0.02674932 0.04544621 0.0034910282 0.019316565 -0.037444044 0.007842729 0.12433748 0.0049148216
-0.077180766 0.05388629 -0.092404574 -0.100947686 0.079577066 -0.11720322 -0.056230806 -0.093519665
-0.030795742 0.073089845 0.08746634 -0.03892241 -0.16004704 0.016168721 0.058892034 0.05393164
-0.050574217 0.11311444 0.11597133 -0.09052385 -0.016768616 0.1167248 0.1287042 -0.02480404
0.08266014 -0.016315144 0.0012955654 0.09116114 0.032945853 0.015550954 0.121325 0.03952761
0.060704432 -0.00038991467 0.13711934 -0.023081882 0.096481696 -0.010894814 0.114307456 0.08330573
0.009306241 0.00021035361 0.07156556 0.08093897 -0.12277307 0.07952015 -0.09649205 0.038125873
0.06329374 -0.027527219 0.09446877 -0.11161179 -0.12520029 -0.08690735 -0.10342652 -0.012772713
0.08444493 0.020984765 -0.06051083 -0.12478137 0.04220674 -0.035270687 0.036824245 -0.013225494
0.1137171 0.012987176 -0.05513651 0.043380342 0.038089972 -0.089267425 0.074232146 -0.045653794
-0.032692418 0.09080676 -0.061228525 -0.11206078 0.060035393 0.011398995 -0.11428901 0.09228228
-0.12857705 0.04748503 0.06530729 -0.019531468 -0.07099037 -0.05226154 -0.01627931 -0.019223453
0.013428007 0.052745488 -0.06858041 -0.07894451 -0.020507712 -0.121185325 0.0072758025 -0.09982411
-0.124411635 -0.062798984 -0.115771845 0.08571046 -0.080869846 -0.030522242 0.07691911 -0.05505475
-0.03841931 -0.083473355 -0.11016781 -0.061939817 -0.08166677 0.1114856 -0.12806307 0.07427252
0.11417778 -0.044695057 0.10908638 0.09417342 -0.115569174 -0.08086955 0.08304706 0.05604436
-0.039794784 0.083546914 0.06695412 -0.097548805 -0.13088454 0.077618346 0.11471035 -0.06788304
-0.02003405 -0.09158171 0.06938957 0.010159786 0.10593293 -0.11308079 0.10866424 -0.032681037
0.018316306 -0.14011613 -0.09500639 0.032385644 -0.16234887 -0.12976582 -0.03130346 -0.019888343
0.09888969 0.04308853 0.09214233 0.0829145 0.09160639 0.081823744 -0.10359196 0.053908926
-0.041681364 -0.09752381 -0.05360642 0.06581147 0.07950583 -0.09751627 0.04594498 -0.06834358
0.13065131 -0.13146581 0.08112077 -0.007667469 0.1304123 -0.0991332 0.061400548 -0.09117382
0.0074627204 0.07114829 0.050570853 -0.04863023 0.021630643 -0.06870715 -0.011330106 -0.059400704
-0.02506645 -0.076768085 -0.08206691 -0.092636645 0.06450915 -0.10453305 0.1036665 0.02031979
0.0520788 -0.09016992 -0.021065354 0.037545174 0.05288039 0.119828954 -0.08042085 -0.067464024
0.00078207254 -0.048699826 -0.04178962 0.03282468 -0.0756014 0.08258855 0.08151299 -0.016365334
-0.024852604 -0.100373074 0.11422978 0.013654903 -0.025940955 -0.089421436 0.03585477 -0.03931643
0.09642689 0.09775165 0.013873756 0.025786415 -0.112604424 0.036815703 0.06447737 -0.08882499
-0.035764933 -0.09615485 0.0273989 -0.10557997 -0.049708262 0.013208434 -0.08263917 0.0019162446
-0.0101536065 0.01525493 -0.078311354 -0.11245181 0.08917835 -0.07355814 0.04050155 0.10629776
0.07645111 -0.10482192 -0.026714757 -0.097647846 -0.104647875 0.027348325 0.01859288 0.11473481

classifier.1.bias f4 [64]
00000000: a952 8c3d 07e0 ca3b 1f4f 80bd 2868 3fbd
00000010: 66d6 83bd 5089 043e 215f c53d ce9f 64bc
00000020: 4609 43bd 9a55 b9bd 0178 853d 9317 a63d
00000030: 2192 41bd 7acb f0bd 43e0 b7bd 6260 d5ba
00000040: be3b c7bd 7fe3 8abd 4f5d 06bd 8bec f6bd
00000050: caca 83bd f969 97bc 7027 b93d 680c a53c
00000060: aa6e e83d 7fae 293d c7e6 b23d 422c 523e
00000070: 7dcf ecbd e487 35bd 4867 cebc 3938 ba3c
00000080: 9484 bb3d 36b1 eabd 535f bebd bbbc 07bd
00000090: 586d 8d3d db46 b9bb e98e 2cbd 4c54 97bc
000000a0: 2e05 e0bd b8b4 cbbd 62bf 3fbd 0e6d 6c3c
000000b0: aa22 a5bd 7b7c 813d 8049 6e3b 1011 8ebd
000000c0: 9086 42bd 8d3c 973d ab04 e3bd c0b5 e63c
000000d0: 0e1b b43d 29ff 163d 63c4 74bc 8769 dbbd
000000e0: e6a0 023e 21c6 71bd c8ee 08be 380a 33bd
000000f0: f0f2 bfbd 4fb7 75bd c9a8 1e3e 8eaa 57bd
0.06851704 0.006191257 -0.06265091 -0.04673019 -0.06437378 0.12943006 0.09637285 -0.013954116
-0.047616266 -0.0904953 0.065170296 0.08109965 -0.0472585 -0.1175756 -0.089783214 -0.0016279335
-0.09728192 -0.06781673 -0.03280383 -0.12056836 -0.06435163 -0.018483149 0.09040725 0.020147517
0.113492325 0.041426178 0.087354235 0.20524696 -0.11563013 -0.04431905 -0.025195733 0.022731887
0.09156147 -0.114595816 -0.092955254 -0.03313897 0.06905621 -0.0056541986 -0.042128477 -0.018472813
-0.10938488 -0.09946579 -0.046813376 0.014430298 -0.08063252 0.06322571 0.0036359727 -0.06936848
-0.04749161 0.07384596 -0.11084875 0.028162837 0.08794223 0.036864433 -0.0149394 -0.10713487
0.1275669 -0.05902684 -0.13372338 -0.043710917 -0.093725085 -0.05998927 0.15494074 -0.052652888

classifier.3.weight f4 [5, 64]
00000000: 7531 c33d 402e 1e3d a5eb fdbd e48e ad3d
00000010: 489e 0dbd aec3 7dbd 0b09 553d 4e9f 1bbd
00000020: 9c80 e1bd 8eaf f53d 4408 273c fa32 e4bd
00000030: 06a7 8e3c 547f 483d 669a 30bd bab6 a23d
00000040: 9d96 6abd cf50 3abd 0336 083d 7bf0 a5bd
00000050: 6370 98bd 318c c3bd b2d9 cbbd 9a37 0ebe
00000060: 5117 76bd 3661 d33d 5d72 e83b 63b3 15be
00000070: 450c 123e c855 bcbc 70e7 afbc 5428 d13d
00000080: ea97 c9bc d7ce a13c 5f69 b3bd 06b2 09bc
00000090: d32e 1ebe 83b6 d83b 6e6d b9bb 5364 13bc
000000a0: 3bda cebc a8fb 063d 79e4 3f3b a91f 483d
000000b0: 80ef f3bd fc68 92bd bcd5 cebd 90c3 29bd
000000c0: 5b32 a73c ed2b ac3d d684 2b3c aa76 f33d
000000d0: b161 3cbc 1892 e3bd 8ab9 f03d 48ac 9e3d
000000e0: 1757 b4bd 194c 393d f7f0 733d e6df efbb
000000f0: b556 663d 2150 a7bd b4e1 a93d f432 a73d
00000100: 431a c93d f15c bebc eb84 983d 3825 e9bd
00000110: b2c1 aabd e55b ae3c 1366 3dbc ac10 693d
00000120: 00bb 063e ee67 a3bc fe8a ba3d bf82 3e3c
00000130: 2407 50bc c038 ef3d 67cf bd3c 9ea8 9e3d
00000140: eaf0 f93d ad07 17bd d28c c93d 3c82 84bd
00000150: 3d88 dbbc 0c29 e7bd 4c4d ae3d 78c9 f13d
00000160: b018 03be 2202 fabd 14cc d83d 0dad d8bd
00000170: 9f78 f6bd 2c80 16bd 5c17 f4bd 6532 4e3c
00000180: c1f8 003e 32f4 973c 393a dbbb 3689 09be
00000190: 4d59 e93d b543 283d 4244 033e 3746 af3d
000001a0: 5532 ebbd d46c 393d f9c8 ccbd 77aa debc
000001b0: dd00 323d 2aba 433d 2af4 dc3d a08b 773c
000001c0: 09c4 af3d ab69 04be 4a42 803d c04a 4d3d
000001d0: 6a23 273d 14d2 723d 501a f43d a7e8 cabd
000001e0: 79d6 29bd edda 183d ff0a 6cbd 5f8d d0bd
000001f0: 5261 a9bb 8122 fc3d cfbf f3bd c28f 16bd
00000200: aa36 cbbd 232d 0abd 40c7 76bd 30f4 5c3c
00000210: ae1d ffbd ab5e a23d 800a ecbd 2a43 9f3d
00000220: e4e6 6cbd 84c6 c53d e519 d7bc d3da 9ebd
00000230: 0167 d43d 608a 4d3d 4905 eeba d070 653c
00000240: b083 6a3d da1d 043e 7739 63bc 51de efbc
00000250: 6e81 143c f365 c63d 3c26 94bd ea11 ae3d
00000260: 2fad 323d c67f 333c 2d2e 8d3d bdc6 9fbd
00000270: ce2f e03c 8675 ac3d 2ade c53d 6200 fb3c
00000280: b527 473c a95f 1fbd a105 babd daaf dbbd
00000290: 702c c03d f9c4 a33d 5e66 11bd 2888 703d
000002a0: 6470 21bd 1ebb fb3d 81d3 e23d e4ee c5bd
000002b0: c64d d33c 4bfc ebbd f8a5 4ebd b85e 503d
000002c0: 8aa4 523d 8f6a 54bd ae6c 2bbd 9f92 da3d
000002d0: 527b 683d 0cb2 603b 105f ea3d 22ef 5d3d
000002e0: c8f2 c13d a336 843d 5431 dbbd eb35 943d
000002f0: 0b9f 09bc 4fa4 c9bd 0300 d8bd 43f2 833d
00000300: aaa4 613d de59 82bd 559e 21bd a0b1 26bc
00000310: a059 8cbd e539 78bc 2cbb c93d 119d 86bd
00000320: b4b5 d73d 8bf7 dd3c 3e77 02be 2a53 913b
00000330: 7e5b 463c 4076 03bb 430f d43d b62c 50be
00000340: 7e6f 29bd c2ac 913a 74bc bdbd 31b4 0cbd
00000350: 7e27 98bc 1c42 dd3c a040 3e3d 9bd0 c7bd
00000360: 18e9 7bbd ee51 153d 61b0 c4bd 4c1f 89bd
00000370: b80e ecbd 3804 033d e0a6 bc3c 241c bd3d
00000380: 76bd 5e3d 1502 47bd 2fbd 1e3d fb95 83bd
00000390: e7f8 c53c be3a 1c3d 81da 24be af7d ecbd
000003a0: cfee 1fbd c83c 3fbd ff22 c8bc 0b15 83bc
000003b0: 51b6 c4bd 028b 1a3c f4bc 363d 4059 6dbc
000003c0: 50d7 d53d 9b72 7c3b a461 a73d a055 603d
000003d0: 6138 10bd b9ca febd 5c9b e93d 5573 3dbd
000003e0: 6022 f23d 6b70 2e3d 2db6 a7bd 3f5c bfbc
000003f0: 4cda b83c f6f3 4bbd e9af ea3d ebc0 a03d
0.095309176 0.038618326 -0.12398461 0.0847452 -0.034574777 -0.061954193 0.052010577 -0.03799372
-0.110108584 0.11996375 0.010194842 -0.111425355 0.017413627 0.048949555 -0.043115996 0.079450086
-0.057272542 -0.04548722 0.033254635 -0.08102509 -0.07443311 -0.09548224 -0.099536315 -0.13888398
-0.06008083 0.10321276 0.0070937113 -0.14619212 0.14262493 -0.022990122 -0.021472663 0.1021277
-0.024608571 0.01975195 -0.08760332 -0.0084042605 -0.1544755 0.006613554 -0.005658797 -0.008996087
-0.025250545 0.03295484 0.0029280467 0.04885832 -0.119109154 -0.071489304 -0.1009936 -0.04144627
0.020409754 0.08406816 0.010468682 0.11887868 -0.011497901 -0.111118495 0.11754139 0.07747704
-0.088056736 0.045238588 0.059555974 -0.007320392 0.056235034 -0.0816958 0.082950026 0.081640154
0.09819462 -0.023237677 0.07447227 -0.11384052 -0.08337726 0.021284053 -0.011559981 0.056900665
0.13157272 -0.019947018 0.09108542 0.011627852 -0.012697015 0.11680746 0.023170186 0.07747005
0.12204154 -0.036872555 0.098413125 -0.06470153 -0.026798362 -0.11287126 0.08510837 0.11806005
-0.12802386 -0.12207438 0.105858 -0.10579882 -0.120347254 -0.036743328 -0.11918518 0.012585257
0.12594892 0.018549059 -0.0066902903 -0.13431248 0.11393986 0.041080195 0.12819007 0.08558314
-0.114842094 0.045269802 -0.0999927 -0.027180893 0.043457855 0.04778496 0.10788758 0.015108973
0.085823126 -0.12930934 0.06262644 0.050120115 0.040805258 0.059282377 0.11919081 -0.09907656
-0.041464303 0.03731816 -0.057627674 -0.101832144 -0.005169072 0.123112686 -0.11901819 -0.036758192
-0.09922536 -0.033734452 -0.060248613 0.013485953 -0.12456833 0.07928213 -0.1152544 0.077764824
-0.057837382 0.096570045 -0.026257465 -0.07756581 0.10371209 0.050180793 -0.0018159534 0.014003947
0.057254493 0.12902012 -0.013868681 -0.029280813 0.009064062 0.09687414 -0.07233855 0.084995106
0.043622192 0.0109557565 0.06893573 -0.07801578 0.027366545 0.08420853 0.09661515 0.030639831
0.012155463 -0.038909588 -0.09083105 -0.107269004 0.09383476 0.07996554 -0.035498016 0.0587236
-0.039413825 0.12291549 0.110754974 -0.096647054 0.025793921 -0.115227304 -0.05045125 0.05087158
0.051426448 -0.051859435 -0.041851692 0.10672497 0.056758232 0.0034285812 0.11443913 0.054183133
0.09470135 0.064557336 -0.10702768 0.072368465 -0.008399735 -0.098457925 -0.10546877 0.06442692
0.055088677 -0.06364797 -0.039457638 -0.010174185 -0.06853032 -0.015150522 0.09850153 -0.06572927
0.10532704 0.027095577 -0.127408 0.0044349628 0.012106774 -0.0020059496 0.103544734 -0.20329556
-0.041366093 0.0011114108 -0.0926446 -0.03435153 -0.018573519 0.027009062 0.04644835 -0.09756585
-0.061501592 0.036455087 -0.09603954 -0.066954225 -0.11526245 0.031986445 0.023028791 0.09233883
0.054379903 -0.04858597 0.03875464 -0.06425091 0.024166537 0.03814196 -0.16098978 -0.1154741
-0.039046105 -0.046688825 -0.02443075 -0.016001245 -0.096050866 0.009432556 0.044613793 -0.014486611
0.10441458 0.0038520459 0.0817292 0.05476916 -0.035210017 -0.1244101 0.114065856 -0.046252567
0.11822963 0.04258768 -0.08189044 -0.023359416 0.02256503 -0.049793206 0.114593334 0.07849296

classifier.3.bias f4 [5]
00000000: 7834 5cbd 5720 0bbe 43d0 cdbd 90ed 8fbd
00000010: eed1 223e
-0.053760976 -0.13586555 -0.100494884 -0.07027733 0.15900394
